…
Relying on driver to perform ptx compilation. This message will be only logged once.
2020-04-25 14:37:27.827554: I tensorflow/stream_executor/platform/default/dso_loader.cc:44] Successfully opened dynamic library libcublas.so.10
<itertools.product object at 0x2b440f69b2d0>
Model: "model_1"
__________________________________________________________________________________________________
Layer (type)                    Output Shape         Param #     Connected to                     
==================================================================================================
input_1 (InputLayer)            (None, 256, 256, 1)  0                                            
__________________________________________________________________________________________________
conv2d_1 (Conv2D)               (None, 256, 256, 32) 320         input_1[0][0]                    
__________________________________________________________________________________________________
leaky_re_lu_1 (LeakyReLU)       (None, 256, 256, 32) 0           conv2d_1[0][0]                   
__________________________________________________________________________________________________
conv2d_2 (Conv2D)               (None, 256, 256, 32) 9248        leaky_re_lu_1[0][0]              
__________________________________________________________________________________________________
leaky_re_lu_2 (LeakyReLU)       (None, 256, 256, 32) 0           conv2d_2[0][0]                   
__________________________________________________________________________________________________
max_pooling2d_1 (MaxPooling2D)  (None, 128, 128, 32) 0           leaky_re_lu_2[0][0]              
__________________________________________________________________________________________________
dropout_1 (Dropout)             (None, 128, 128, 32) 0           max_pooling2d_1[0][0]            
__________________________________________________________________________________________________
conv2d_3 (Conv2D)               (None, 128, 128, 64) 18496       dropout_1[0][0]                  
__________________________________________________________________________________________________
leaky_re_lu_3 (LeakyReLU)       (None, 128, 128, 64) 0           conv2d_3[0][0]                   
__________________________________________________________________________________________________
conv2d_4 (Conv2D)               (None, 128, 128, 64) 36928       leaky_re_lu_3[0][0]              
__________________________________________________________________________________________________
leaky_re_lu_4 (LeakyReLU)       (None, 128, 128, 64) 0           conv2d_4[0][0]                   
__________________________________________________________________________________________________
max_pooling2d_2 (MaxPooling2D)  (None, 64, 64, 64)   0           leaky_re_lu_4[0][0]              
__________________________________________________________________________________________________
dropout_2 (Dropout)             (None, 64, 64, 64)   0           max_pooling2d_2[0][0]            
__________________________________________________________________________________________________
conv2d_5 (Conv2D)               (None, 64, 64, 128)  73856       dropout_2[0][0]                  
__________________________________________________________________________________________________
leaky_re_lu_5 (LeakyReLU)       (None, 64, 64, 128)  0           conv2d_5[0][0]                   
__________________________________________________________________________________________________
conv2d_6 (Conv2D)               (None, 64, 64, 128)  147584      leaky_re_lu_5[0][0]              
__________________________________________________________________________________________________
leaky_re_lu_6 (LeakyReLU)       (None, 64, 64, 128)  0           conv2d_6[0][0]                   
__________________________________________________________________________________________________
max_pooling2d_3 (MaxPooling2D)  (None, 32, 32, 128)  0           leaky_re_lu_6[0][0]              
__________________________________________________________________________________________________
dropout_3 (Dropout)             (None, 32, 32, 128)  0           max_pooling2d_3[0][0]            
__________________________________________________________________________________________________
conv2d_7 (Conv2D)               (None, 32, 32, 256)  295168      dropout_3[0][0]                  
__________________________________________________________________________________________________
leaky_re_lu_7 (LeakyReLU)       (None, 32, 32, 256)  0           conv2d_7[0][0]                   
__________________________________________________________________________________________________
conv2d_8 (Conv2D)               (None, 32, 32, 256)  590080      leaky_re_lu_7[0][0]              
__________________________________________________________________________________________________
leaky_re_lu_8 (LeakyReLU)       (None, 32, 32, 256)  0           conv2d_8[0][0]                   
__________________________________________________________________________________________________
max_pooling2d_4 (MaxPooling2D)  (None, 16, 16, 256)  0           leaky_re_lu_8[0][0]              
__________________________________________________________________________________________________
dropout_4 (Dropout)             (None, 16, 16, 256)  0           max_pooling2d_4[0][0]            
__________________________________________________________________________________________________
conv2d_9 (Conv2D)               (None, 16, 16, 512)  1180160     dropout_4[0][0]                  
__________________________________________________________________________________________________
leaky_re_lu_9 (LeakyReLU)       (None, 16, 16, 512)  0           conv2d_9[0][0]                   
__________________________________________________________________________________________________
conv2d_10 (Conv2D)              (None, 16, 16, 512)  2359808     leaky_re_lu_9[0][0]              
__________________________________________________________________________________________________
leaky_re_lu_10 (LeakyReLU)      (None, 16, 16, 512)  0           conv2d_10[0][0]                  
__________________________________________________________________________________________________
conv2d_transpose_1 (Conv2DTrans (None, 32, 32, 256)  1179904     leaky_re_lu_10[0][0]             
__________________________________________________________________________________________________
leaky_re_lu_11 (LeakyReLU)      (None, 32, 32, 256)  0           conv2d_transpose_1[0][0]         
__________________________________________________________________________________________________
concatenate_1 (Concatenate)     (None, 32, 32, 512)  0           leaky_re_lu_11[0][0]             
                                                                 leaky_re_lu_8[0][0]              
__________________________________________________________________________________________________
dropout_5 (Dropout)             (None, 32, 32, 512)  0           concatenate_1[0][0]              
__________________________________________________________________________________________________
conv2d_11 (Conv2D)              (None, 32, 32, 256)  1179904     dropout_5[0][0]                  
__________________________________________________________________________________________________
leaky_re_lu_12 (LeakyReLU)      (None, 32, 32, 256)  0           conv2d_11[0][0]                  
__________________________________________________________________________________________________
conv2d_12 (Conv2D)              (None, 32, 32, 256)  590080      leaky_re_lu_12[0][0]             
__________________________________________________________________________________________________
leaky_re_lu_13 (LeakyReLU)      (None, 32, 32, 256)  0           conv2d_12[0][0]                  
__________________________________________________________________________________________________
conv2d_transpose_2 (Conv2DTrans (None, 64, 64, 128)  295040      leaky_re_lu_13[0][0]             
__________________________________________________________________________________________________
leaky_re_lu_14 (LeakyReLU)      (None, 64, 64, 128)  0           conv2d_transpose_2[0][0]         
__________________________________________________________________________________________________
concatenate_2 (Concatenate)     (None, 64, 64, 256)  0           leaky_re_lu_14[0][0]             
                                                                 leaky_re_lu_6[0][0]              
__________________________________________________________________________________________________
dropout_6 (Dropout)             (None, 64, 64, 256)  0           concatenate_2[0][0]              
__________________________________________________________________________________________________
conv2d_13 (Conv2D)              (None, 64, 64, 128)  295040      dropout_6[0][0]                  
__________________________________________________________________________________________________
leaky_re_lu_15 (LeakyReLU)      (None, 64, 64, 128)  0           conv2d_13[0][0]                  
__________________________________________________________________________________________________
conv2d_14 (Conv2D)              (None, 64, 64, 128)  147584      leaky_re_lu_15[0][0]             
__________________________________________________________________________________________________
leaky_re_lu_16 (LeakyReLU)      (None, 64, 64, 128)  0           conv2d_14[0][0]                  
__________________________________________________________________________________________________
conv2d_transpose_3 (Conv2DTrans (None, 128, 128, 64) 73792       leaky_re_lu_16[0][0]             
__________________________________________________________________________________________________
leaky_re_lu_17 (LeakyReLU)      (None, 128, 128, 64) 0           conv2d_transpose_3[0][0]         
__________________________________________________________________________________________________
concatenate_3 (Concatenate)     (None, 128, 128, 128 0           leaky_re_lu_17[0][0]             
                                                                 leaky_re_lu_4[0][0]              
__________________________________________________________________________________________________
dropout_7 (Dropout)             (None, 128, 128, 128 0           concatenate_3[0][0]              
__________________________________________________________________________________________________
conv2d_15 (Conv2D)              (None, 128, 128, 64) 73792       dropout_7[0][0]                  
__________________________________________________________________________________________________
leaky_re_lu_18 (LeakyReLU)      (None, 128, 128, 64) 0           conv2d_15[0][0]                  
__________________________________________________________________________________________________
conv2d_16 (Conv2D)              (None, 128, 128, 64) 36928       leaky_re_lu_18[0][0]             
__________________________________________________________________________________________________
leaky_re_lu_19 (LeakyReLU)      (None, 128, 128, 64) 0           conv2d_16[0][0]                  
__________________________________________________________________________________________________
conv2d_transpose_4 (Conv2DTrans (None, 256, 256, 32) 18464       leaky_re_lu_19[0][0]             
__________________________________________________________________________________________________
leaky_re_lu_20 (LeakyReLU)      (None, 256, 256, 32) 0           conv2d_transpose_4[0][0]         
__________________________________________________________________________________________________
concatenate_4 (Concatenate)     (None, 256, 256, 64) 0           leaky_re_lu_20[0][0]             
                                                                 leaky_re_lu_2[0][0]              
__________________________________________________________________________________________________
dropout_8 (Dropout)             (None, 256, 256, 64) 0           concatenate_4[0][0]              
__________________________________________________________________________________________________
dropout_9 (Dropout)             (None, 256, 256, 64) 0           dropout_8[0][0]                  
__________________________________________________________________________________________________
conv2d_17 (Conv2D)              (None, 256, 256, 32) 18464       dropout_9[0][0]                  
__________________________________________________________________________________________________
leaky_re_lu_21 (LeakyReLU)      (None, 256, 256, 32) 0           conv2d_17[0][0]                  
__________________________________________________________________________________________________
conv2d_18 (Conv2D)              (None, 256, 256, 32) 9248        leaky_re_lu_21[0][0]             
__________________________________________________________________________________________________
leaky_re_lu_22 (LeakyReLU)      (None, 256, 256, 32) 0           conv2d_18[0][0]                  
__________________________________________________________________________________________________
conv2d_19 (Conv2D)              (None, 256, 256, 3)  99          leaky_re_lu_22[0][0]             
==================================================================================================
Total params: 8,629,987
Trainable params: 8,629,987
Non-trainable params: 0
__________________________________________________________________________________________________
Train on 1212 samples, validate on 135 samples
Epoch 1/1000
 - 27s - loss: 0.4366 - acc: 0.9237 - val_loss: 0.2478 - val_acc: 0.9432
…
 [0.         0.         0.        ]
 [0.         0.         0.        ]
 [0.         0.         0.        ]
 [0.         0.         0.        ]
 [0.         0.         0.        ]
 [0.         0.         0.        ]] parameters= (32, 'Adam', 0.2, 'glorot_uniform', 1e-05)
Model: "model_31"
__________________________________________________________________________________________________
Layer (type)                    Output Shape         Param #     Connected to                     
==================================================================================================
input_31 (InputLayer)           (None, 256, 256, 1)  0                                            
__________________________________________________________________________________________________
conv2d_571 (Conv2D)             (None, 256, 256, 64) 640         input_31[0][0]                   
__________________________________________________________________________________________________
leaky_re_lu_661 (LeakyReLU)     (None, 256, 256, 64) 0           conv2d_571[0][0]                 
__________________________________________________________________________________________________
conv2d_572 (Conv2D)             (None, 256, 256, 64) 36928       leaky_re_lu_661[0][0]            
__________________________________________________________________________________________________
leaky_re_lu_662 (LeakyReLU)     (None, 256, 256, 64) 0           conv2d_572[0][0]                 
__________________________________________________________________________________________________
max_pooling2d_121 (MaxPooling2D (None, 128, 128, 64) 0           leaky_re_lu_662[0][0]            
__________________________________________________________________________________________________
dropout_271 (Dropout)           (None, 128, 128, 64) 0           max_pooling2d_121[0][0]          
__________________________________________________________________________________________________
conv2d_573 (Conv2D)             (None, 128, 128, 128 73856       dropout_271[0][0]                
__________________________________________________________________________________________________
leaky_re_lu_663 (LeakyReLU)     (None, 128, 128, 128 0           conv2d_573[0][0]                 
__________________________________________________________________________________________________
conv2d_574 (Conv2D)             (None, 128, 128, 128 147584      leaky_re_lu_663[0][0]            
__________________________________________________________________________________________________
leaky_re_lu_664 (LeakyReLU)     (None, 128, 128, 128 0           conv2d_574[0][0]                 
__________________________________________________________________________________________________
max_pooling2d_122 (MaxPooling2D (None, 64, 64, 128)  0           leaky_re_lu_664[0][0]            
__________________________________________________________________________________________________
dropout_272 (Dropout)           (None, 64, 64, 128)  0           max_pooling2d_122[0][0]          
__________________________________________________________________________________________________
conv2d_575 (Conv2D)             (None, 64, 64, 256)  295168      dropout_272[0][0]                
__________________________________________________________________________________________________
leaky_re_lu_665 (LeakyReLU)     (None, 64, 64, 256)  0           conv2d_575[0][0]                 
__________________________________________________________________________________________________
conv2d_576 (Conv2D)             (None, 64, 64, 256)  590080      leaky_re_lu_665[0][0]            
__________________________________________________________________________________________________
leaky_re_lu_666 (LeakyReLU)     (None, 64, 64, 256)  0           conv2d_576[0][0]                 
__________________________________________________________________________________________________
max_pooling2d_123 (MaxPooling2D (None, 32, 32, 256)  0           leaky_re_lu_666[0][0]            
__________________________________________________________________________________________________
dropout_273 (Dropout)           (None, 32, 32, 256)  0           max_pooling2d_123[0][0]          
__________________________________________________________________________________________________
conv2d_577 (Conv2D)             (None, 32, 32, 512)  1180160     dropout_273[0][0]                
__________________________________________________________________________________________________
leaky_re_lu_667 (LeakyReLU)     (None, 32, 32, 512)  0           conv2d_577[0][0]                 
__________________________________________________________________________________________________
conv2d_578 (Conv2D)             (None, 32, 32, 512)  2359808     leaky_re_lu_667[0][0]            
__________________________________________________________________________________________________
leaky_re_lu_668 (LeakyReLU)     (None, 32, 32, 512)  0           conv2d_578[0][0]                 
__________________________________________________________________________________________________
max_pooling2d_124 (MaxPooling2D (None, 16, 16, 512)  0           leaky_re_lu_668[0][0]            
__________________________________________________________________________________________________
dropout_274 (Dropout)           (None, 16, 16, 512)  0           max_pooling2d_124[0][0]          
__________________________________________________________________________________________________
conv2d_579 (Conv2D)             (None, 16, 16, 1024) 4719616     dropout_274[0][0]                
__________________________________________________________________________________________________
leaky_re_lu_669 (LeakyReLU)     (None, 16, 16, 1024) 0           conv2d_579[0][0]                 
__________________________________________________________________________________________________
conv2d_580 (Conv2D)             (None, 16, 16, 1024) 9438208     leaky_re_lu_669[0][0]            
__________________________________________________________________________________________________
leaky_re_lu_670 (LeakyReLU)     (None, 16, 16, 1024) 0           conv2d_580[0][0]                 
__________________________________________________________________________________________________
conv2d_transpose_121 (Conv2DTra (None, 32, 32, 512)  4719104     leaky_re_lu_670[0][0]            
__________________________________________________________________________________________________
leaky_re_lu_671 (LeakyReLU)     (None, 32, 32, 512)  0           conv2d_transpose_121[0][0]       
__________________________________________________________________________________________________
concatenate_121 (Concatenate)   (None, 32, 32, 1024) 0           leaky_re_lu_671[0][0]            
                                                                 leaky_re_lu_668[0][0]            
__________________________________________________________________________________________________
dropout_275 (Dropout)           (None, 32, 32, 1024) 0           concatenate_121[0][0]            
__________________________________________________________________________________________________
conv2d_581 (Conv2D)             (None, 32, 32, 512)  4719104     dropout_275[0][0]                
__________________________________________________________________________________________________
leaky_re_lu_672 (LeakyReLU)     (None, 32, 32, 512)  0           conv2d_581[0][0]                 
__________________________________________________________________________________________________
conv2d_582 (Conv2D)             (None, 32, 32, 512)  2359808     leaky_re_lu_672[0][0]            
__________________________________________________________________________________________________
leaky_re_lu_673 (LeakyReLU)     (None, 32, 32, 512)  0           conv2d_582[0][0]                 
__________________________________________________________________________________________________
conv2d_transpose_122 (Conv2DTra (None, 64, 64, 256)  1179904     leaky_re_lu_673[0][0]            
__________________________________________________________________________________________________
leaky_re_lu_674 (LeakyReLU)     (None, 64, 64, 256)  0           conv2d_transpose_122[0][0]       
__________________________________________________________________________________________________
concatenate_122 (Concatenate)   (None, 64, 64, 512)  0           leaky_re_lu_674[0][0]            
                                                                 leaky_re_lu_666[0][0]            
__________________________________________________________________________________________________
dropout_276 (Dropout)           (None, 64, 64, 512)  0           concatenate_122[0][0]            
__________________________________________________________________________________________________
conv2d_583 (Conv2D)             (None, 64, 64, 256)  1179904     dropout_276[0][0]                
__________________________________________________________________________________________________
leaky_re_lu_675 (LeakyReLU)     (None, 64, 64, 256)  0           conv2d_583[0][0]                 
__________________________________________________________________________________________________
conv2d_584 (Conv2D)             (None, 64, 64, 256)  590080      leaky_re_lu_675[0][0]            
__________________________________________________________________________________________________
leaky_re_lu_676 (LeakyReLU)     (None, 64, 64, 256)  0           conv2d_584[0][0]                 
__________________________________________________________________________________________________
conv2d_transpose_123 (Conv2DTra (None, 128, 128, 128 295040      leaky_re_lu_676[0][0]            
__________________________________________________________________________________________________
leaky_re_lu_677 (LeakyReLU)     (None, 128, 128, 128 0           conv2d_transpose_123[0][0]       
…
leaky_re_lu_678 (LeakyReLU)     (None, 128, 128, 128 0           conv2d_585[0][0]                 
__________________________________________________________________________________________________
conv2d_586 (Conv2D)             (None, 128, 128, 128 147584      leaky_re_lu_678[0][0]            
__________________________________________________________________________________________________
leaky_re_lu_679 (LeakyReLU)     (None, 128, 128, 128 0           conv2d_586[0][0]                 
__________________________________________________________________________________________________
conv2d_transpose_124 (Conv2DTra (None, 256, 256, 64) 73792       leaky_re_lu_679[0][0]            
__________________________________________________________________________________________________
leaky_re_lu_680 (LeakyReLU)     (None, 256, 256, 64) 0           conv2d_transpose_124[0][0]       
__________________________________________________________________________________________________
concatenate_124 (Concatenate)   (None, 256, 256, 128 0           leaky_re_lu_680[0][0]            
                                                                 leaky_re_lu_662[0][0]            
__________________________________________________________________________________________________
dropout_278 (Dropout)           (None, 256, 256, 128 0           concatenate_124[0][0]            
__________________________________________________________________________________________________
dropout_279 (Dropout)           (None, 256, 256, 128 0           dropout_278[0][0]                
__________________________________________________________________________________________________
conv2d_587 (Conv2D)             (None, 256, 256, 64) 73792       dropout_279[0][0]                
__________________________________________________________________________________________________
leaky_re_lu_681 (LeakyReLU)     (None, 256, 256, 64) 0           conv2d_587[0][0]                 
__________________________________________________________________________________________________
conv2d_588 (Conv2D)             (None, 256, 256, 64) 36928       leaky_re_lu_681[0][0]            
__________________________________________________________________________________________________
leaky_re_lu_682 (LeakyReLU)     (None, 256, 256, 64) 0           conv2d_588[0][0]                 
__________________________________________________________________________________________________
conv2d_589 (Conv2D)             (None, 256, 256, 3)  195         leaky_re_lu_682[0][0]            
==================================================================================================
Total params: 34,512,323
Trainable params: 34,512,323
Non-trainable params: 0
__________________________________________________________________________________________________
Train on 1212 samples, validate on 135 samples
Epoch 1/1000
 - 52s - loss: 0.4154 - acc: 0.9280 - val_loss: 0.1746 - val_acc: 0.9432
…
