…
Relying on driver to perform ptx compilation. This message will be only logged once.
2020-04-29 22:26:13.127156: I tensorflow/stream_executor/platform/default/dso_loader.cc:44] Successfully opened dynamic library libcublas.so.10
Using TensorFlow backend.
Model: "model_1"
__________________________________________________________________________________________________
Layer (type)                    Output Shape         Param #     Connected to                     
==================================================================================================
input_1 (InputLayer)            (None, 256, 256, 1)  0                                            
__________________________________________________________________________________________________
conv2d_1 (Conv2D)               (None, 256, 256, 64) 640         input_1[0][0]                    
__________________________________________________________________________________________________
leaky_re_lu_1 (LeakyReLU)       (None, 256, 256, 64) 0           conv2d_1[0][0]                   
__________________________________________________________________________________________________
conv2d_2 (Conv2D)               (None, 256, 256, 64) 36928       leaky_re_lu_1[0][0]              
__________________________________________________________________________________________________
leaky_re_lu_2 (LeakyReLU)       (None, 256, 256, 64) 0           conv2d_2[0][0]                   
__________________________________________________________________________________________________
max_pooling2d_1 (MaxPooling2D)  (None, 128, 128, 64) 0           leaky_re_lu_2[0][0]              
__________________________________________________________________________________________________
dropout_1 (Dropout)             (None, 128, 128, 64) 0           max_pooling2d_1[0][0]            
__________________________________________________________________________________________________
conv2d_3 (Conv2D)               (None, 128, 128, 128 73856       dropout_1[0][0]                  
__________________________________________________________________________________________________
leaky_re_lu_3 (LeakyReLU)       (None, 128, 128, 128 0           conv2d_3[0][0]                   
__________________________________________________________________________________________________
conv2d_4 (Conv2D)               (None, 128, 128, 128 147584      leaky_re_lu_3[0][0]              
__________________________________________________________________________________________________
leaky_re_lu_4 (LeakyReLU)       (None, 128, 128, 128 0           conv2d_4[0][0]                   
__________________________________________________________________________________________________
max_pooling2d_2 (MaxPooling2D)  (None, 64, 64, 128)  0           leaky_re_lu_4[0][0]              
__________________________________________________________________________________________________
dropout_2 (Dropout)             (None, 64, 64, 128)  0           max_pooling2d_2[0][0]            
__________________________________________________________________________________________________
conv2d_5 (Conv2D)               (None, 64, 64, 256)  295168      dropout_2[0][0]                  
__________________________________________________________________________________________________
leaky_re_lu_5 (LeakyReLU)       (None, 64, 64, 256)  0           conv2d_5[0][0]                   
__________________________________________________________________________________________________
conv2d_6 (Conv2D)               (None, 64, 64, 256)  590080      leaky_re_lu_5[0][0]              
__________________________________________________________________________________________________
leaky_re_lu_6 (LeakyReLU)       (None, 64, 64, 256)  0           conv2d_6[0][0]                   
__________________________________________________________________________________________________
max_pooling2d_3 (MaxPooling2D)  (None, 32, 32, 256)  0           leaky_re_lu_6[0][0]              
__________________________________________________________________________________________________
dropout_3 (Dropout)             (None, 32, 32, 256)  0           max_pooling2d_3[0][0]            
__________________________________________________________________________________________________
conv2d_7 (Conv2D)               (None, 32, 32, 512)  1180160     dropout_3[0][0]                  
__________________________________________________________________________________________________
leaky_re_lu_7 (LeakyReLU)       (None, 32, 32, 512)  0           conv2d_7[0][0]                   
__________________________________________________________________________________________________
conv2d_8 (Conv2D)               (None, 32, 32, 512)  2359808     leaky_re_lu_7[0][0]              
__________________________________________________________________________________________________
leaky_re_lu_8 (LeakyReLU)       (None, 32, 32, 512)  0           conv2d_8[0][0]                   
__________________________________________________________________________________________________
max_pooling2d_4 (MaxPooling2D)  (None, 16, 16, 512)  0           leaky_re_lu_8[0][0]              
__________________________________________________________________________________________________
dropout_4 (Dropout)             (None, 16, 16, 512)  0           max_pooling2d_4[0][0]            
__________________________________________________________________________________________________
conv2d_9 (Conv2D)               (None, 16, 16, 1024) 4719616     dropout_4[0][0]                  
__________________________________________________________________________________________________
leaky_re_lu_9 (LeakyReLU)       (None, 16, 16, 1024) 0           conv2d_9[0][0]                   
__________________________________________________________________________________________________
conv2d_10 (Conv2D)              (None, 16, 16, 1024) 9438208     leaky_re_lu_9[0][0]              
__________________________________________________________________________________________________
leaky_re_lu_10 (LeakyReLU)      (None, 16, 16, 1024) 0           conv2d_10[0][0]                  
__________________________________________________________________________________________________
conv2d_transpose_1 (Conv2DTrans (None, 32, 32, 512)  4719104     leaky_re_lu_10[0][0]             
__________________________________________________________________________________________________
leaky_re_lu_11 (LeakyReLU)      (None, 32, 32, 512)  0           conv2d_transpose_1[0][0]         
__________________________________________________________________________________________________
concatenate_1 (Concatenate)     (None, 32, 32, 1024) 0           leaky_re_lu_11[0][0]             
                                                                 leaky_re_lu_8[0][0]              
__________________________________________________________________________________________________
dropout_5 (Dropout)             (None, 32, 32, 1024) 0           concatenate_1[0][0]              
__________________________________________________________________________________________________
conv2d_11 (Conv2D)              (None, 32, 32, 512)  4719104     dropout_5[0][0]                  
__________________________________________________________________________________________________
leaky_re_lu_12 (LeakyReLU)      (None, 32, 32, 512)  0           conv2d_11[0][0]                  
__________________________________________________________________________________________________
conv2d_12 (Conv2D)              (None, 32, 32, 512)  2359808     leaky_re_lu_12[0][0]             
__________________________________________________________________________________________________
leaky_re_lu_13 (LeakyReLU)      (None, 32, 32, 512)  0           conv2d_12[0][0]                  
__________________________________________________________________________________________________
conv2d_transpose_2 (Conv2DTrans (None, 64, 64, 256)  1179904     leaky_re_lu_13[0][0]             
__________________________________________________________________________________________________
leaky_re_lu_14 (LeakyReLU)      (None, 64, 64, 256)  0           conv2d_transpose_2[0][0]         
__________________________________________________________________________________________________
concatenate_2 (Concatenate)     (None, 64, 64, 512)  0           leaky_re_lu_14[0][0]             
                                                                 leaky_re_lu_6[0][0]              
__________________________________________________________________________________________________
dropout_6 (Dropout)             (None, 64, 64, 512)  0           concatenate_2[0][0]              
__________________________________________________________________________________________________
conv2d_13 (Conv2D)              (None, 64, 64, 256)  1179904     dropout_6[0][0]                  
__________________________________________________________________________________________________
leaky_re_lu_15 (LeakyReLU)      (None, 64, 64, 256)  0           conv2d_13[0][0]                  
__________________________________________________________________________________________________
conv2d_14 (Conv2D)              (None, 64, 64, 256)  590080      leaky_re_lu_15[0][0]             
__________________________________________________________________________________________________
leaky_re_lu_16 (LeakyReLU)      (None, 64, 64, 256)  0           conv2d_14[0][0]                  
__________________________________________________________________________________________________
conv2d_transpose_3 (Conv2DTrans (None, 128, 128, 128 295040      leaky_re_lu_16[0][0]             
__________________________________________________________________________________________________
leaky_re_lu_17 (LeakyReLU)      (None, 128, 128, 128 0           conv2d_transpose_3[0][0]         
…
leaky_re_lu_18 (LeakyReLU)      (None, 128, 128, 128 0           conv2d_15[0][0]                  
__________________________________________________________________________________________________
conv2d_16 (Conv2D)              (None, 128, 128, 128 147584      leaky_re_lu_18[0][0]             
__________________________________________________________________________________________________
leaky_re_lu_19 (LeakyReLU)      (None, 128, 128, 128 0           conv2d_16[0][0]                  
__________________________________________________________________________________________________
conv2d_transpose_4 (Conv2DTrans (None, 256, 256, 64) 73792       leaky_re_lu_19[0][0]             
__________________________________________________________________________________________________
leaky_re_lu_20 (LeakyReLU)      (None, 256, 256, 64) 0           conv2d_transpose_4[0][0]         
__________________________________________________________________________________________________
concatenate_4 (Concatenate)     (None, 256, 256, 128 0           leaky_re_lu_20[0][0]             
                                                                 leaky_re_lu_2[0][0]              
__________________________________________________________________________________________________
dropout_8 (Dropout)             (None, 256, 256, 128 0           concatenate_4[0][0]              
__________________________________________________________________________________________________
dropout_9 (Dropout)             (None, 256, 256, 128 0           dropout_8[0][0]                  
__________________________________________________________________________________________________
conv2d_17 (Conv2D)              (None, 256, 256, 64) 73792       dropout_9[0][0]                  
__________________________________________________________________________________________________
leaky_re_lu_21 (LeakyReLU)      (None, 256, 256, 64) 0           conv2d_17[0][0]                  
__________________________________________________________________________________________________
conv2d_18 (Conv2D)              (None, 256, 256, 64) 36928       leaky_re_lu_21[0][0]             
__________________________________________________________________________________________________
leaky_re_lu_22 (LeakyReLU)      (None, 256, 256, 64) 0           conv2d_18[0][0]                  
__________________________________________________________________________________________________
conv2d_19 (Conv2D)              (None, 256, 256, 3)  195         leaky_re_lu_22[0][0]             
==================================================================================================
Total params: 34,512,323
Trainable params: 34,512,323
Non-trainable params: 0
__________________________________________________________________________________________________
Scores for the unrotated data : 
overall_precision : 0.9489361572265625 
per_class_precision : 0.5844628717590986 
…
